models/best_model.pth (torch, 7993 bytes, 6 tensors)

fc1.weight f4 [32, 3]
0	0xbcb64a3e	-0.022252198
1	0xbe3f8807	-0.18704234
2	0x3e763d78	0.24046886
3	0xbed4b645	-0.4154531
4	0xbef0e603	-0.47050485
5	0x3ba5b200	0.0050566196
6	0x3f1ab020	0.60424995
7	0x3e924619	0.28569105
8	0xbc367f18	-0.0111387
9	0xbd673bbd	-0.056453455
10	0x3ad6425d	0.0016346682
11	0x3f286d7b	0.65792054
12	0x3ed2d1dc	0.41175735
13	0xbee8eb28	-0.4549191
14	0xbe890670	-0.26762724
15	0xbdd3bfd9	-0.103393264
16	0x3e6db8b2	0.23214987
17	0x3efb3993	0.49067363
18	0xbddd0594	-0.107920796
19	0xbd5cabbe	-0.053874724
20	0x3f2805e7	0.65634006
21	0xbe011258	-0.12604654
22	0xbd49aa24	-0.049234524
23	0x3f2b61f7	0.6694636
24	0x3ef446ce	0.4771027
25	0xbf0eac1c	-0.5573137
26	0xbda54a0a	-0.080707625
27	0x3e8d806e	0.27637047
28	0x3f3baa0a	0.73306334
29	0xbf0fc30b	-0.56156987
30	0x3d2915cd	0.041280556
31	0x3ea91883	0.33026513
32	0x3e9c5e9a	0.30540925
33	0x3f1154d2	0.5677005
34	0xbceb4d04	-0.028723247
35	0x3f20315f	0.62575334
36	0x3ebb6e44	0.36607563
37	0x3e5d390b	0.21603791
38	0x3e32f9eb	0.17478149
39	0x3e97a0eb	0.29614958
40	0x3ebed32f	0.37270495
41	0x3f1ed206	0.6203922
42	0x3a2bf1ee	0.00065591827
43	0xbeb36205	-0.3503572
44	0x3ea857e3	0.32879552
45	0x3e14d568	0.14534533
46	0xbe445aca	-0.19175258
47	0x3f060d3d	0.5236395
48	0xbd5fbce0	-0.054623485
49	0xbebde2df	-0.3708715
50	0xbead1828	-0.33807492
51	0xbe8b9605	-0.27262893
52	0x3e91c32a	0.2846921
53	0xbd3e7d30	-0.046506107
54	0xbf10a6be	-0.5650443
55	0xbe5691ee	-0.20954105
56	0xbe9dd1f6	-0.3082425
57	0xbd4e7fd0	-0.05041486
58	0xbec4bac2	-0.38423735
59	0x3f2b3522	0.6687795
60	0x3ea2f2f6	0.3182599
61	0xbeea70f8	-0.45789313
62	0xbe038a9c	-0.12845844
63	0x3ed3f7ac	0.41399896
64	0xbd5567fb	-0.052101117
65	0xbe6bcec6	-0.23028097
66	0x3edbcce1	0.42929748
67	0x3eca409b	0.39502415
68	0xbdc00f6e	-0.09377943
69	0x3e2a4246	0.16626844
70	0xbf18f3cd	-0.5974701
71	0xbed7edbc	-0.42173564
72	0x3e9614b6	0.29312676
73	0x3e847658	0.2587154
74	0x3d4a30e3	0.04936303
75	0x3e97bdf7	0.2963712
76	0x3e4f5e62	0.20250848
77	0x3d6ea842	0.058265932
78	0xbdaf0308	-0.085455
79	0x3e715c70	0.23570418
80	0xbebd3cc0	-0.3696041
81	0x3ef710e6	0.4825508
82	0x3d0ab2db	0.033861976
83	0xbe8bf833	-0.27337798
84	0x3db3b644	0.08774999
85	0x3e719a85	0.23594101
86	0x3f2f3735	0.68443614
87	0x3eed7330	0.46376944
88	0x3e91124d	0.28334275
89	0x3f1be374	0.6089394
90	0x3e585ee9	0.21129955
91	0xbdce4581	-0.100718506
92	0xbd8c8084	-0.0686045
93	0xbe12f63c	-0.14351743
94	0xbf0d3690	-0.5516138
95	0x3eb66fe2	0.35632235

fc1.bias f4 [32]
0	0x3f610f25	0.87913734
1	0xbe920f0d	-0.28527108
2	0xbce4a2c5	-0.027909646
3	0x3f0f3a73	0.5594856
4	0xbd9e9310	-0.07742894
5	0x3f6fa544	0.9361155
6	0x3ec1211a	0.37720567
7	0x3eb0eec3	0.3455716
8	0xbcfd3742	-0.030910138
9	0xbf10f2c2	-0.5662042
10	0x3f2e6f50	0.681386
11	0x3d9ccf47	0.076567225
12	0x3dbaca22	0.09120585
13	0x3f624d57	0.8839926
14	0x3ef08a69	0.469806
15	0x3f706468	0.9390321
16	0xbee26cf4	-0.4422375
17	0xbe67fa68	-0.22654116
18	0x3ec96a20	0.3933878
19	0x3f3bdd35	0.7338441
20	0x3f050f10	0.5197611
21	0x3ed57c69	0.4169648
22	0xbe344236	-0.17603382
23	0x3f156386	0.58354986
24	0x3f3873cd	0.720517
25	0xbd8cdca5	-0.06878022
26	0xbec158a2	-0.37762934
27	0xbf091b3e	-0.53557193
28	0x3ee0c873	0.4390293
29	0xbe0af532	-0.13570097
30	0x3f17dd85	0.59322387
31	0xbec7f05d	-0.3905057

fc2.weight f4 [32, 32]
0	0x3e07897d	0.13236041
1	0x3de93636	0.11387293
2	0xbde618bd	-0.11235187
3	0x3d053aec	0.032526895
4	0x3de6fe34	0.11278954
5	0xbdc8ef0c	-0.098112196
6	0xbe299f35	-0.16564639
7	0xbc165190	-0.009174719
8	0x3e27d2b5	0.16388972
9	0xbdd655de	-0.104655966
10	0x3b9c4f48	0.0047701932
11	0xbbc086af	-0.0058754305
12	0x3df3a3f1	0.11896504
13	0xbe13ee82	-0.14446452
14	0xbd631010	-0.05543524
15	0x3d564518	0.052311987
16	0xbc86ffc0	-0.016479373
17	0x3d82d704	0.06388667
18	0x3ddc9ed6	0.10772483
19	0xbc0d1d60	-0.008612961
20	0x3d283f0e	0.04107576
21	0x3d728ddb	0.059217315
22	0xbd819fc5	-0.06329302
23	0x3e0d2084	0.13781935
24	0xbe36b5b2	-0.17842749
25	0x3d9a7d08	0.07543379
26	0x3dc5f9be	0.09666775
27	0xbd1f06cb	-0.038824838
28	0x3e2cd72c	0.16878957
29	0xbe13211c	-0.14368099
30	0xbd20562d	-0.039144684
31	0xbd0ff2f4	-0.035143808
32	0xbe2fc11a	-0.17163506
33	0x3e2296bd	0.15877815
34	0xbd4616d6	-0.04836162
35	0xbde4382b	-0.11143526
36	0xbd0c6e1c	-0.034284696
37	0x3e12cf73	0.14336948
38	0x3d2a7ee7	0.04162493
39	0x3dc14552	0.0943705
40	0x3e00f3ef	0.12593053
41	0xbe1f93c9	-0.1558372
42	0x3df3cc6f	0.11904227
43	0xbe38a46c	-0.18031472
44	0x3d7f79f7	0.062372174
45	0xbda9a901	-0.08284188
46	0x3dd85347	0.10562759
47	0x3d8cdd1e	0.06878112
48	0x3e31eac5	0.17374714
49	0xbcaf3150	-0.021385819
50	0xbd081a04	-0.033227935
51	0xbde6c205	-0.11267475
52	0x3cffbc80	0.031217813
53	0x3d41c39c	0.04730569
54	0xbd862074	-0.06549159
55	0xbda99f95	-0.08282391
56	0xbd87e271	-0.06634987
57	0xbe221555	-0.1582845
58	0xbe193ab4	-0.149638
59	0xbd347284	-0.044054523
60	0x3d37dd53	0.044888806
61	0x3e023694	0.12716132
62	0x3d13f70c	0.036124274
63	0xbe379a4e	-0.17929956
64	0x3d460fca	0.0483549
65	0x3ddd70b6	0.108125135
66	0x3d691bba	0.056911208
67	0x3e573dbc	0.21019644
68	0xbe2767c3	-0.16348176
69	0x3b526684	0.003210456
70	0x3e848e6f	0.25889918
71	0x3e99a3e4	0.3000785
72	0x3d7642c8	0.06012228
73	0x3ceb322f	0.028710453
74	0xbce02665	-0.027362058
75	0xbe0c18cd	-0.13681336
76	0x3e1d46a6	0.15358981
77	0xbd0ae8a3	-0.033913266
78	0xbd0aec8a	-0.033916987
79	0x3d402929	0.046914253
80	0x3e2d2573	0.16908817
81	0xbdd9d4df	-0.10636305
82	0xbe121353	-0.14265184
83	0x3e9b265f	0.30302712
84	0x3def083a	0.11671491
85	0x3df2b3ab	0.11850675
86	0xbd45b602	-0.04826928
87	0xbc7ec052	-0.015548782
88	0x3dac28cf	0.08406221
89	0x3e1cc695	0.15310128
90	0x3cbcde98	0.02305536
91	0xbe33a3fe	-0.17543027
92	0x3e6e76c6	0.23287496
93	0xbd835737	-0.06413119
94	0x3e0838c9	0.13302912
95	0xbe8c3b74	-0.2738911
96	0x3e368228	0.17823088
97	0xbe0be6dc	-0.13662285
98	0x3bfbdfe6	0.007686603
99	0x3e99ce07	0.3004
100	0x3dbb32a9	0.09140522
101	0x3df24013	0.118286274
102	0x3dc5fff4	0.0966796
103	0x3da4fb1e	0.08055709
104	0x3cee12eb	0.029061755
105	0xbe323eca	-0.17406765
106	0x3dbd977a	0.092574075
107	0x3e58042c	0.21095341
108	0x3d3d1ac0	0.04616809
109	0x3d44cbc3	0.048045885
110	0x3e290e31	0.1650932
111	0x3e3a9803	0.1822205
112	0x3d9edf26	0.07757406
113	0x3dcb8dc6	0.099391505
114	0x3ba7c280	0.0051196218
115	0x3eb05815	0.344422
116	0x3dc49891	0.09599412
117	0x3d480d32	0.04884071
118	0x3e51e6fc	0.2049827
119	0x3c0d2d34	0.008616734
120	0x3d89ef0e	0.06735049
121	0x3c9ea3ca	0.01936521
122	0xbd25e168	-0.040498167
123	0x3d0eaee5	0.03483476
124	0x3e4f5075	0.20245536
125	0x3ce3b004	0.027793892
126	0x3e7e3f4d	0.24828835
127	0xbe65e7b6	-0.22451672
128	0xbd8a4eae	-0.06753288
129	0x3cdd0d50	0.026983887
130	0xbd8bf917	-0.068346195
131	0xbd6ab6f8	-0.0573034
132	0xbda15a66	-0.0787857
133	0xbe16c9d2	-0.14725426
134	0xbc943c40	-0.018095136
135	0xbdb6437b	-0.0889959
136	0xbd7a67cd	-0.06113415
137	0x3e0e7c5a	0.13914624
138	0xbd8b35ff	-0.06797408
139	0x3ddf5fa5	0.109069146
140	0x3bbaec94	0.005704472
141	0x3dc00fad	0.0937799
142	0x3d0d6240	0.034517527
143	0xbdf96ac0	-0.12178564
144	0x3e0a3539	0.13496865
145	0x3d705338	0.058673114
146	0xbdbe771a	-0.093000606
147	0xbda2b76b	-0.079451405
148	0x3c60f1de	0.013729541
149	0x3db8b9a3	0.090197824
150	0x3c5c5699	0.013448381
151	0x3d119e52	0.035551377
152	0xbe3b2d92	-0.18279102
153	0x3e0e3d5d	0.13890596
154	0xbd195e00	-0.03744316
155	0xbd84ccf6	-0.06484406
156	0x3d140781	0.03613997
157	0xbe1b0daa	-0.15141931
158	0xbd286537	-0.04111215
159	0x3c56c920	0.013109475
160	0xbe2c4d62	-0.16826394
161	0x3d341840	0.04396844
162	0x3c8d2126	0.01722772
163	0x3d758647	0.05994251
164	0x3d6cb0b6	0.057785712
165	0xba992a5f	-0.0011685601
166	0xbe116951	-0.14200331
167	0x3d692975	0.056924302
168	0x3d2fe6ed	0.042944837
169	0xbdc816d6	-0.097699806
170	0xbdbf6abb	-0.09346529
171	0x3dc7ae61	0.09750057
172	0xbd209630	-0.03920573
173	0x3d07aaa5	0.033121724
174	0x3de52f53	0.11190667
175	0xbe01bd49	-0.12669863
176	0xbdeaedf0	-0.11471164
177	0xbd8ff77a	-0.07029624
178	0xbc89dd08	-0.016829029
179	0xbdbd795e	-0.092516646
180	0xbe2858f7	-0.16440187
181	0xbe45434b	-0.19263951
182	0x3cddadc7	0.027060403
183	0x3cac507e	0.021034475
184	0x3c31b295	0.0108458
185	0x3e066de8	0.13127863
186	0xbe055a34	-0.13022691
187	0xbde0a8cc	-0.109696954
188	0x3deadeac	0.114682525
189	0xbe0f8d1a	-0.1401867
190	0x3e138fbe	0.14410302
191	0xbcfd6f0f	-0.030936746
192	0x3ca38e00	0.019965172
193	0xbdb7cb8c	-0.0897437
194	0x3c2ac810	0.010423675
195	0xbe09e8ec	-0.13467759
196	0x3e178f4b	0.14800756
197	0xbc0281f0	-0.00796555
198	0x3e2545f1	0.16139962
199	0x3d6b32a0	0.057421327
200	0xbe2457b4	-0.16049081
201	0xbdeb40bc	-0.114869565
202	0xbe04d8f0	-0.1297338
203	0xbe0c2826	-0.1368719
204	0xbc0f8e50	-0.008761957
205	0xbdf2686c	-0.11836323
206	0x3d14b59c	0.03630601
207	0x3c2cff00	0.010558844
208	0x3dbde322	0.09271838
209	0xbe27f87e	-0.16403386
210	0xbbc3dd00	-0.005977273
211	0xbdf0d78e	-0.11759864
212	0x3db14ae6	0.08656864
213	0xbdbad766	-0.09123115
214	0x3d8e0f14	0.0693647
215	0xbd022734	-0.03177567
216	0xbd9f6481	-0.077828415
217	0xbd54c09c	-0.0519415
218	0x3d3f4c5c	0.04670368
219	0xbdc356ec	-0.095380634
220	0xbdc43cb0	-0.09581888
221	0x3d784290	0.060610354
222	0x3da7ac8a	0.08187206
223	0x3c28c110	0.010299936
224	0xbcb6a214	-0.022294082
225	0x3d1c57f8	0.03816983
226	0xbe2862b5	-0.16443904
227	0xbdef28ca	-0.11677702
228	0xbe49b3e8	-0.19697535
229	0xbe4c1c61	-0.199327
230	0xbbeeb99e	-0.007285311
231	0xbda46eca	-0.08028944
232	0xbbfd6062	-0.007732437
233	0x3e164eb3	0.14678459
234	0x3dfb4bef	0.122703426
235	0xbd043f1f	-0.03228676
236	0x3e01bd6b	0.12669913
237	0xbd275e76	-0.04086157
238	0xbd337c7a	-0.043819882
239	0x3dd7773f	0.10520791
240	0x3e11887d	0.14212222
241	0x3da7835a	0.0817935
242	0x3c9f59c8	0.01945199
243	0xbe3346f8	-0.17507541
244	0xbdb55a48	-0.088551104
245	0xbd9e2807	-0.07722478
246	0x3db389cc	0.08766517
247	0xbd96bffd	-0.073608376
248	0x3ddcbf0e	0.10778628
249	0x3de079d2	0.109607354
250	0xbd1a5aa8	-0.037684113
251	0xbe39a239	-0.1812829
252	0x3cd72a65	0.026265332
253	0x3dd5f639	0.10447354
254	0xbd22821e	-0.03967487
255	0xbbcff04e	-0.006345785

fc2.bias f4 [32]
0	0xbd36c195	-0.044618208
1	0xbe1121bc	-0.14173025
2	0x3ef0d372	0.4703632
3	0x3ebf4219	0.37355116
4	0x3d245829	0.04012314
5	0xbe0f3b77	-0.13987528
6	0xbdddf774	-0.108382136
7	0xbe298a08	-0.16556561
8	0xbe01152e	-0.12605736
9	0xbb9f86a0	-0.0048683435
10	0xbe1fcefc	-0.15606302
11	0x3e945989	0.2897456
12	0x3c932610	0.017962486
13	0xbdf3d539	-0.11905903
14	0x3efe3312	0.4964834
15	0x3eb12bf3	0.34603843
16	0x3d174fa4	0.036941186
17	0x3ebaee7a	0.36510068
18	0xbca98de0	-0.020697534
19	0x3e8af079	0.2713659
20	0x3eab78e6	0.33490676
21	0x3ef616b9	0.4806421
22	0x3d6bd2d7	0.05757412
23	0x3eab4f1b	0.3345879
24	0x3e6b034d	0.22950478
25	0x3eb05adc	0.3444432
26	0x3ee6cbdf	0.45077416
27	0xbd661c94	-0.056179598
28	0x3e9cce57	0.30626175
29	0xbb588a40	-0.0033041388
30	0x3c73f5a2	0.014890106
31	0xbe1c2f3f	-0.15252398

fc3.weight f4 [2, 32]
0	0xbe0482b9	-0.12940492
1	0x3cc88ef8	0.024482235
2	0x3d10d7f8	0.035362214
3	0x3e09e68c	0.13466853
4	0xbd539400	-0.051654816
5	0xbd54c814	-0.051948622
6	0x3daec90e	0.08534442
7	0xbcd1e7bc	-0.025623195
8	0xbd0aed7c	-0.03391789
9	0xbe0d58b4	-0.13803369
10	0x3cdfcf50	0.027320534
11	0x3e884459	0.26614645
12	0x3d9f0496	0.077645466
13	0xbdc7f889	-0.09764201
14	0x3e5867a0	0.2113328
15	0x3e61c59c	0.22048038
16	0xbd326472	-0.043552823
17	0x3e893ce4	0.26804268
18	0xbb822220	-0.003971353
19	0x3d0da8cd	0.03458481
20	0x3e372918	0.1788677
21	0x3e08a538	0.13344276
22	0xbe0a9fa6	-0.13537464
23	0x3e48025b	0.19532149
24	0x3e87cbcc	0.26522672
25	0x3db15cdc	0.0866029
26	0x3df85054	0.121246964
27	0x3d51393b	0.05107997
28	0x3e1d27af	0.1534717
29	0x3e248d4b	0.16069524
30	0xbcb9bb36	-0.022672277
31	0x3db1ca8a	0.086812094
32	0xbd99f742	-0.07517864
33	0xbdb655a7	-0.08903056
34	0x3e9219de	0.2853536
35	0x3e59ea12	0.21280697
36	0xbd34e0b6	-0.044159614
37	0x3c97416e	0.018463816
38	0xbcd97c30	-0.026548475
39	0xbe053fd6	-0.13012633
40	0xbdbc4aa9	-0.09193928
41	0xbe29b7a1	-0.16573955
42	0x3dbf7b52	0.09349693
43	0x3c6ccdb3	0.014453339
44	0x3dbda05e	0.09259103
45	0xbdca253e	-0.09870385
46	0x3e5794f8	0.21052921
47	0x3e6038bf	0.21896647
48	0xbd8bee7a	-0.06832595
49	0x3daa7ac1	0.08324195
50	0xbe155567	-0.1458336
51	0x3e3d0da9	0.18462242
52	0x3de0899e	0.109637484
53	0x3bc4cb00	0.006005645
54	0x3e13fbdb	0.14451544
55	0x3e784e76	0.2424868
56	0xbd01428d	-0.03155761
57	0x3e08c280	0.13355446
58	0x3c697e76	0.014251342
59	0xbe003a73	-0.12522297
60	0x3e3baa90	0.18326783
61	0xbe281615	-0.16414674
62	0xbdd4e936	-0.10396044
63	0x3d921e5e	0.07134698

fc3.bias f4 [2]
0	0x3e933421	0.2875071
1	0x3ea72991	0.326489
